AIServer/Models/AIModels/AISingleNumberModel.onnx (onnx, 320347 bytes, 4 tensors)

StatefulPartitionedCall/sequential/dense_1/MatMul/ReadVariableOp:0 f4 [100, 10]
000000 5d a6 81 3e 38 2c 4e be 21 26 3c be 16 9d 04 bf
       0.25322238 -0.20134056 -0.1837392 -0.51802194
000010 df fb 6a 3e e0 4a 87 3e 86 07 54 be 00 42 49 be
       0.22947644 0.26424313 -0.20705995 -0.19654083
000020 77 35 36 3e d5 6d 7f 3e aa 04 19 be f4 01 dc be
       0.17793833 0.24944241 -0.14943185 -0.4297024
000030 8b df c1 3d c1 9d 71 3e 9d 7b ce bb 98 ee eb 3d
       0.094664656 0.23595335 -0.006301357 0.115201175
000040 f0 13 c7 bd ee 07 14 3e ed 9c 58 3e d4 0a 7b 3e
       -0.097206 0.1445615 0.21153612 0.2451585
000050 3b ee f7 3e 78 99 57 be d9 d7 92 be b8 6a 71 bd
       0.48423943 -0.21054637 -0.28680304 -0.058939666
000060 96 f3 e3 bc cf 3d ba be 0d 6c d3 3e c3 92 d8 be
       -0.027826112 -0.3637528 0.41293374 -0.4229947
000070 59 9a 5e 3d 96 1f a7 bc 63 19 24 bf 35 88 ae 3e
       0.054346416 -0.020400804 -0.6410124 0.34088293
000080 f3 b8 6b 3e 95 8d da bc d7 9b 96 bd de 93 af 3e
       0.23019771 -0.02667884 -0.07353943 0.342925
000090 eb 54 33 3e 8a 4f a8 be e6 61 90 bd 7f 69 4b be
       0.17512862 -0.32873183 -0.07049923 -0.19864462
0000a0 f8 be 44 be 8b 27 e7 3d 96 c3 08 bf 61 61 ba 3e
       -0.19213474 0.11286839 -0.5342344 0.3640242
0000b0 54 0f 36 be 6f f3 96 3e e7 ef b5 bd 8b 65 1c bd
       -0.17779285 0.294826 -0.08883648 -0.038182776
0000c0 0e ee 55 3d b5 99 cc bd 51 55 a7 be b2 14 ad 3e
       0.05222898 -0.09990255 -0.3268228 0.33804852
0000d0 97 60 57 be c1 2c 2e bf eb 49 53 3e bb 02 58 be
       -0.2103294 -0.6803704 0.20633666 -0.21094792
0000e0 84 21 48 3d 53 76 b8 3e f4 1b 05 be f9 ff 91 be
       0.048860088 0.36027774 -0.12998945 -0.28515604
0000f0 71 2c c7 3c 18 45 48 be 1a 15 ec bd a8 02 b6 be
       0.024313184 -0.19557607 -0.11527462 -0.35548902
000100 a2 97 41 3c 41 0c fd 3d 83 84 57 3e c5 06 a4 be
       0.011815937 0.12355853 0.21046643 -0.32036415
000110 e2 d2 7e 3e b1 f6 87 be ce e4 86 be 64 9b 9f 3d
       0.24885133 -0.26555398 -0.2634644 0.0779331
000120 eb d0 d4 bd 73 25 1b be 1c bd 04 bd 90 98 d6 3d
       -0.103914104 -0.15151004 -0.03240691 0.10478318
000130 f2 42 2e be 0b 89 5e be 92 95 3c 3e ca ee 08 3d
       -0.17017725 -0.21731965 0.18416432 0.033430852
000140 0b f2 b7 3d 03 aa 59 3d e4 f6 63 3e 80 95 20 bf
       0.08981713 0.05314065 0.2226215 -0.6272812
000150 61 3a e0 3e a3 38 1c bf 75 da 89 3c 5e 5f 05 3f
       0.4379454 -0.6102392 0.016827801 0.52098644
000160 82 2c 9c bd 01 11 8b be ef 97 c0 be 04 e4 79 3d
       -0.07625677 -0.2716141 -0.37615916 0.06100847
000170 e8 b7 8c 3e e9 03 09 3e 05 37 d4 be 9f 31 32 3e
       0.2748406 0.13380398 -0.41448227 0.17401741
000180 05 a9 70 3e 9b a4 88 be 58 23 70 3e a4 c3 41 3d
       0.23501976 -0.26688084 0.23450983 0.047305718
000190 41 df 08 be fc fe 68 bd b2 ec 91 bd e5 db 1b 3f
       -0.13366415 -0.056883797 -0.07125224 0.6088241
0001a0 b7 14 d2 bd 65 51 e2 3e 58 f8 97 be 20 b1 9d be
       -0.10257857 0.44202724 -0.2968166 -0.30799198
0001b0 c0 e5 d8 be 71 c0 e8 3d 15 7c 59 be 3f 49 c5 bd
       -0.42362785 0.1136483 -0.2123874 -0.09633111
0001c0 75 08 a3 3d aa e3 7c bd fc a4 99 be d2 25 89 be
       0.079605974 -0.061740555 -0.30008686 -0.26786667
0001d0 7c 30 dc bc 56 35 d7 3d 1d 6d a2 be 0b 20 37 3d
       -0.026878588 0.1050822 -0.31723872 0.044708293
0001e0 21 85 04 3e 03 27 49 be d0 bf 18 be 58 cb 81 3d
       0.1294141 -0.19643788 -0.1491692 0.06337613
0001f0 cb dd 33 3e be 0d 65 be e8 b0 13 3c 19 72 03 3e
       0.17565076 -0.22368523 0.009014346 0.12836494
000200 e9 a6 c6 3d 4b 79 44 3e 25 a7 fb 3d e2 fa a3 be
       0.09699804 0.19186895 0.1228774 -0.32027346
000210 fe 4e d4 bc 8d 8e 95 3d ed b6 1b 3e c6 cb 83 be
       -0.025916573 0.0730258 0.152065 -0.25741404
000220 9f e3 85 3e 87 c4 21 3e 91 36 dc be b0 66 68 be
       0.26150224 0.15797625 -0.4301038 -0.22695422
000230 aa 02 56 3e 12 3a 95 be f5 f0 e8 3d 55 8f 6f be
       0.20899454 -0.29145867 0.11374084 -0.2339452
000240 1d 44 d0 3d 15 f3 4b 3e b7 e6 0e be a3 9e 6e be
       0.101692416 0.19916947 -0.13955198 -0.23302703
000250 8b 51 2c bd 16 55 2c 3e eb f4 60 bd fc 48 1d bf
       -0.042069953 0.16829333 -0.054921072 -0.6143949
000260 6f 01 15 be 51 34 3e be 8c ec 33 be c0 dc f0 bd
       -0.14551328 -0.18574645 -0.17570704 -0.11760855
000270 6f 46 f3 3d 86 09 24 3e 8b 98 f5 bc fb ea 90 3e
       0.118786685 0.16019258 -0.029979965 0.28304276
000280 0d f7 bb be 53 b8 c4 3d da 21 41 be ec 80 b3 be
       -0.36711922 0.096054696 -0.1886057 -0.35059297
000290 d5 7a 39 bf f3 12 0c 3f 15 79 c7 3e a6 b5 84 be
       -0.7245305 0.54716414 0.38959566 -0.25919837
0002a0 eb f6 7d be 5c 88 9b 3d 0c 19 8d be 92 ec 6d 3e
       -0.24801223 0.07594368 -0.27558172 0.23234776
0002b0 4f 41 2a bf 34 a0 58 be 3d 5b bc 3d 90 91 7b 3e
       -0.66505903 -0.21154863 0.0919709 0.24567246
0002c0 8a 19 22 3e 2f fb 10 3e b3 d6 86 bd 0b 00 11 bd
       0.15830055 0.14158319 -0.065839194 -0.03540043
0002d0 c9 ac e3 3d 54 e7 e4 be 16 0b 4a 3e af 99 ed be
       0.111169405 -0.4470774 0.19730791 -0.46406314
0002e0 61 52 0d 3e a9 ec c1 be 10 29 64 be 7e 69 57 bd
       0.13800956 -0.3787587 -0.22281289 -0.05259084
0002f0 36 45 a2 3e cc 4f b5 3e bb 1e 0e 3f 91 2e 10 bf
       0.3169343 0.35412443 0.5551564 -0.56321055
000300 22 2a 0e 3f 7f ac 73 3e a8 c6 1d bf c5 79 64 3e
       0.5553304 0.23796271 -0.6163125 0.22312076
000310 cf 6a bc bd e4 35 0f be 78 15 69 bc 18 db 2c bf
       -0.092000596 -0.13985401 -0.01422631 -0.6752181
000320 f0 af 90 be 29 c8 10 3d 2e 4f 59 be 5d 80 ac be
       -0.2825923 0.035347138 -0.21221611 -0.33691683
000330 61 ab 9d 3e d9 f3 e9 bd c5 3a 9a 3d 56 15 5d 3e
       0.30794814 -0.114234634 0.07530741 0.2159017
000340 a9 9c 10 3e 29 17 a6 3d 32 86 cf be 2c a3 fa bc
       0.14122261 0.08109886 -0.4053207 -0.030595385
000350 c6 3a d1 3e bd a1 59 be 36 51 1a be 51 6f 89 3e
       0.40865153 -0.21253105 -0.15070042 0.2684274
000360 30 87 6b 3e 03 bf fc 3e f6 de e3 be a8 6b 0a bf
       0.23000789 0.4936448 -0.44506043 -0.5407052
000370 20 db 59 be a5 92 f5 be a9 39 db be 9b 2f 49 3e
       -0.21274996 -0.47963443 -0.4281743 0.19647066
000380 58 ba 9f 3d 2e 64 83 3e 65 ae 6c bf 38 d6 d3 bd
       0.07799214 0.2566237 -0.92453605 -0.10343593
000390 08 cb 18 be d0 f7 2a 3e 37 ee da 3c 1a 95 65 be
       -0.149212 0.16696095 0.026724918 -0.22420159
0003a0 ba 14 f5 3d fa 05 5b 3d de a1 01 3e e6 76 24 be
       0.11966844 0.053472497 0.12659404 -0.16060981
0003b0 4a 0b db 3d 6e f8 d8 be 2d 80 66 3e 89 30 5b 3e
       0.106955126 -0.42377037 0.22509833 0.21405233
0003c0 29 14 ab 3e ae 0f a5 3d ef e9 12 be d1 a4 af be
       0.33413818 0.08059631 -0.14347051 -0.34305432
0003d0 43 5b d5 be 78 d1 cf be 4d e3 d8 3d dd 96 21 3e
       -0.4167119 -0.405895 0.10590229 0.15780206
0003e0 8b 5d 23 3e 79 67 74 3d fe 6b 09 be 6b 30 cd 3e
       0.15953653 0.05966899 -0.13420102 0.40076002
0003f0 60 3a 0e be b2 8e bf be 9a 35 ea 3e cb 6c 49 3e
       -0.13889456 -0.37413555 0.4574402 0.19670407

StatefulPartitionedCall/sequential/dense_1/BiasAdd/ReadVariableOp:0 f4 [10]
000000 64 08 23 be 5b d5 08 3c cd 40 90 bd 58 c7 e8 bb
       -0.1592117 0.008351649 -0.0704361 -0.0071038418
000010 ab 18 de 3d 47 d1 f1 3d 35 51 16 bd ab ae 3e bc
       0.10844549 0.118074946 -0.03669854 -0.011638324
000020 bf 04 8a 3d 2f ed 88 bd
       0.067391865 -0.06685864

StatefulPartitionedCall/sequential/dense/MatMul/ReadVariableOp:0 f4 [784, 100]
000000 40 a1 90 bc 60 21 9d bd d0 0f 9f bc 37 10 8c bd
       -0.017655015 -0.076723814 -0.01941672 -0.0683903
000010 b0 05 6b bd f5 b7 60 bd ac c6 82 bd 94 d1 95 3d
       -0.05737847 -0.054862935 -0.0638555 0.073153645
000020 cf 33 a3 bd 37 06 73 bd 6f 77 4c bd e9 e1 12 bd
       -0.07968866 -0.0593321 -0.04991859 -0.035859976
000030 48 34 08 3d 98 55 fd bc 04 69 0c bd 74 aa 8d 3d
       0.033252984 -0.030924603 -0.03427984 0.06917277
000040 6c 13 ee 3c b0 17 53 bc 4c 14 83 3c 28 92 3c 3d
       0.029061995 -0.0128840655 0.01600089 0.046037823
000050 cd 41 86 bd 3c 5e 1e 3d 54 25 e6 3c 34 ad 81 3d
       -0.06555519 0.038664088 0.028093971 0.06331864
000060 f4 fa 9d 3d 80 e3 6d bb b4 79 82 bd 7a db a6 3d
       0.07713881 -0.003629893 -0.06370869 0.081473306
000070 3c 94 9f bd f8 47 d6 3c e4 bb 51 3d b6 69 0d 3d
       -0.07791945 0.026157364 0.051204577 0.034524642
000080 d4 98 8a 3d 24 ce fe 3c c0 7c 23 bb 84 7e 78 bd
       0.06767431 0.031104155 -0.0024946183 -0.06066753
000090 40 29 9a 3a 10 b0 92 bc 36 dd a7 bd c4 21 6a bd
       0.0011761561 -0.017906219 -0.081964895 -0.057161108
0000a0 b4 11 a6 3d c0 71 1d bc d0 9b 9c 3b 70 b3 36 bc
       0.08108845 -0.00960964 0.0047793165 -0.01115118
0000b0 52 d7 9d bd d8 57 18 3d 0c 4b 8d bc e8 1f 0b 3d
       -0.07707085 0.03719315 -0.0172477 0.033965975
0000c0 fe 2b 8e bd 00 7c 78 3a de 8c 76 bd c0 f5 56 3b
       -0.069419846 0.00094789267 -0.060192935 0.0032800287
0000d0 ba 82 fc bc 88 fe 6a bc a0 65 b5 bb 10 9d 32 3c
       -0.030824054 -0.014342912 -0.0055357963 0.010901704
0000e0 d2 4e a3 bd c6 70 a1 3d 5e 40 52 bd f4 02 ca 3c
       -0.07974018 0.07882838 -0.051330917 0.024659611
0000f0 20 c9 de 3c 86 85 8b 3d 9c 7c a4 bd e0 db 89 bd
       0.027195513 0.06812577 -0.0803158 -0.06731391
000100 db a7 16 bd d8 33 88 3d 20 b8 7d 3d b2 0f 2b 3d
       -0.036781173 0.066505134 0.061943173 0.041763015
000110 fe 0b 7e bd 60 ba 0b bb 00 60 c7 bb 28 91 7d bd
       -0.062023155 -0.0021320805 -0.006084442 -0.06190601
000120 d0 a5 61 3c d0 d6 4d 3d 9f 87 42 bd 00 48 6e 3b
       0.013772443 0.05025369 -0.04749262 0.0036358833
000130 d8 c8 3f 3c 08 9a 4d bc e8 00 a2 bc 40 b1 8e bd
       0.0117056 -0.012548931 -0.019775823 -0.069674015
000140 8a a4 ee bc bc c5 4f 3d e6 76 9d bd 38 e1 6c 3c
       -0.029131193 0.050725684 -0.07688694 0.014457993
000150 08 57 1e 3c 1c 1c 8c 3c 2a 44 14 3d d0 c9 9d 3d
       0.009664305 0.017103247 0.03619782 0.07704508
000160 58 b1 8c 3c 9f 5d 83 bd f0 41 fc 3c 18 68 12 3c
       0.017174408 -0.06414341 0.03079316 0.008935951
000170 b8 ad 96 3c dd 54 91 bd 38 92 6c 3c 6c 76 81 3d
       0.018393382 -0.070962645 0.014439158 0.06321415
000180 3c 23 ee 3c c8 d5 2f 3d 50 74 42 3c 36 f3 84 3d
       0.029069535 0.042928487 0.011868551 0.06491701
000190 d3 be 13 bd a0 ad 3e bb e0 e4 b1 3c ec 91 3f 3d
       -0.036070656 -0.0029095188 0.021715581 0.04677002
0001a0 1e e0 74 bd b8 a2 52 bd 66 4b 97 3d 80 ef c4 bb
       -0.059784047 -0.051424712 0.07387428 -0.006009996
0001b0 b8 35 52 3c 8c 31 0a 3d a8 1f 86 bc 50 f0 ff 3b
       0.01283019 0.033738658 -0.016372517 0.00781063
0001c0 8c 26 94 3c 10 86 ed 3b 00 21 5e bb 18 25 a4 bc
       0.018084787 0.0072486475 -0.0033894181 -0.020037219
0001d0 10 4b 93 3d c8 7a e8 3c c8 bc 5c 3c 90 c7 c0 3c
       0.071920514 0.02837886 0.013472743 0.023532659
0001e0 42 32 8a bd b0 cc a1 3b ea d3 bf bc 73 d8 24 bd
       -0.06747867 0.0049377307 -0.023416478 -0.040245485
0001f0 36 96 5a bd de 6e 92 3d 30 53 a0 3b cc 01 95 bd
       -0.05336591 0.071500525 0.004892729 -0.07275733
000200 b4 e4 52 3d 10 f2 bc 3b f0 29 4f bc 1e c5 a3 bd
       0.05148764 0.005766161 -0.012644276 -0.079965815
000210 e0 d9 23 3c 20 56 f9 bb 44 76 83 3d da 41 26 3d
       0.010000676 -0.007609144 0.06419042 0.040590145
000220 9a f6 29 3d a0 9c 05 3d 8b cc 84 bd 66 b2 95 3d
       0.041494943 0.032620072 -0.06484326 0.073094174
000230 c9 bb 03 bd 30 35 bf 3b ee e7 9c 3d 62 a6 37 bd
       -0.032161508 0.005835198 0.076614246 -0.04483641
000240 1b de 80 bd 6e 83 80 3d 55 51 07 bd c2 af 98 bd
       -0.06292363 0.06275068 -0.03303655 -0.07455398
000250 04 be 75 3d 04 22 14 bd e0 2e 91 bd 18 de 1a 3d
       0.059995666 -0.036165252 -0.07089019 0.03780946
000260 e4 d9 79 3d e2 f1 7a bd ec 8f 4e 3d c0 ea be bb
       0.060998812 -0.061265834 0.050430223 -0.005826324
000270 80 37 9d 3b a8 45 80 3c 86 1e 9e bd 16 d8 39 bd
       0.004797876 0.015658215 -0.07720666 -0.04537209
000280 64 f6 90 bc 9c ac 82 3c de c8 4a bd e8 f8 99 bd
       -0.017695613 0.015951447 -0.049507968 -0.07518178
000290 be 97 0d bd 40 0a 4a 3d 58 b7 8d 3d 62 ee 07 3d
       -0.03456854 0.04932618 0.06919736 0.033186324
0002a0 42 17 8b 3d 30 f3 35 3d 00 2b 2c bd 02 b2 92 3d
       0.067915455 0.044421375 -0.042033195 0.071628585
0002b0 3a 71 a8 bc 08 17 d9 3c c0 70 37 bd a0 a0 8a 3b
       -0.020561803 0.02650024 -0.04478526 0.004230574
0002c0 00 6c 50 bb 95 46 8d bd 80 95 8c 3c d8 b1 07 3d
       -0.0031802654 -0.06898228 0.01716113 0.03312859
0002d0 00 c8 4e 3c 00 dd fa 39 26 33 97 bd 9b 7c 92 bd
       0.012620926 0.00047848374 -0.07382803 -0.07152673
0002e0 e7 29 7b bd 18 2e 91 bc 88 f8 50 3d 18 f2 aa 3c
       -0.061319258 -0.017722175 0.051018268 0.020867392
0002f0 38 19 13 bc 74 a6 87 3c a7 25 66 bd 08 76 c5 3c
       -0.008978181 0.016558863 -0.05618825 0.024104133
000300 44 14 f0 3c 78 f7 d7 3c 1e 27 41 bd 48 8e 3e bc
       0.029306538 0.02636312 -0.047156446 -0.011630602
000310 b0 c6 e7 bb 00 9b a6 bd 12 6c 1a 3d 44 52 d9 3c
       -0.007073246 -0.08135033 0.03770072 0.026528485
000320 20 43 0f bc 0c a2 a1 3d 3c 60 2f 3d 63 46 23 bd
       -0.008744031 0.07892236 0.042816386 -0.039862048
000330 82 55 b9 bc f4 45 a2 bd c0 f6 35 3d ed 37 a8 bd
       -0.022623781 -0.07923499 0.044424772 -0.08213792
000340 14 be d9 3c d0 3e 62 3c 0c d8 0f bd ca c3 d5 bc
       0.026579894 0.013808921 -0.035118148 -0.026094336
000350 ad f8 16 bd 1c 93 a3 3c 22 58 8a bd 8c 87 d0 bc
       -0.03685825 0.019967608 -0.06755091 -0.025455259
000360 5a d1 20 3d 1c 2b 8e bd ba c1 70 bd 34 49 34 3d
       0.039262153 -0.06941816 -0.058778502 0.044015124
000370 db 23 53 bd 4c 42 77 3d 40 34 13 3c c3 31 7c bd
       -0.051547866 0.06036596 0.008984625 -0.061570894
000380 72 64 ae bc 43 29 81 bd 48 87 10 3d a8 54 d9 bc
       -0.02128813 -0.06306698 0.035285264 -0.026529625
000390 f3 e3 39 bd 21 59 1e bd 70 a3 a7 3d 7e e0 40 bd
       -0.045383405 -0.03865922 0.0818547 -0.047089092
0003a0 8c a4 e4 3c 60 7b 72 bd 90 45 5e 3d d0 79 44 3d
       0.027910493 -0.05919969 0.05426556 0.047967732
0003b0 1a 0c 16 3d 58 80 31 bc 92 3a a6 3d d8 39 b4 3c
       0.036632635 -0.010833822 0.0811664 0.022000238
0003c0 ae 52 59 bd d0 5f 30 bc 13 46 21 bd 2e 6d fc bc
       -0.053057365 -0.010765031 -0.03937347 -0.03081378
0003d0 62 03 15 bd 6f 66 08 bd e6 98 16 3d 78 77 9e bd
       -0.03638018 -0.033300813 0.03676691 -0.077376306
0003e0 85 ad 0c bd 4c 3e 0f 3d b0 41 45 3d ec 2b 19 3d
       -0.03434517 0.03497152 0.048158348 0.037395403
0003f0 40 ed 52 3d a0 98 60 3d 80 76 e8 ba cb c6 53 bd
       0.05149579 0.054833055 -0.0017735511 -0.051703256

StatefulPartitionedCall/sequential/dense/BiasAdd/ReadVariableOp:0 f4 [100]
000000 58 7b ed 3c c6 12 03 3b 4a ae d8 bd 43 28 f9 3c
       0.028989479 0.0020000204 -0.10580118 0.030414706
000010 be 93 d1 3d 4c fd 28 3d a7 4e a0 3d 65 53 32 3c
       0.10233258 0.041257188 0.07827502 0.010884141
000020 c3 d9 b0 3d e1 06 92 bd 5f 11 70 3d 17 fc 3d bc
       0.08635285 -0.07130218 0.058610316 -0.011595747
000030 82 82 bd bc 86 2f 8d bc c4 1f a5 bd 45 2e 56 3c
       -0.02313352 -0.017234575 -0.080626994 0.013072555
000040 58 6d b9 3c 6c d9 0e 3e 9f c1 a5 bd c2 90 d0 3d
       0.022635147 0.13950127 -0.08093571 0.1018386
000050 4d 39 b2 3d d1 0e 23 3e 0e f1 24 3e 79 49 fa bd
       0.087023355 0.15923621 0.1610758 -0.12221045
000060 3a 43 d5 bd e6 47 c2 3d 26 80 fd 3b d7 0c 02 be
       -0.10413213 0.0948637 0.0077362237 -0.1270021
000070 b8 07 ec bd cc 2d 1a 3e a3 78 e6 ba c4 f2 98 3d
       -0.1152491 0.15056533 -0.001758356 0.07468179
000080 6d 87 d2 3d cd 82 0e 3e e6 e8 c4 bd 53 ca 95 bd
       0.10279737 0.13917084 -0.09614734 -0.07313981
000090 0d 2c 43 bd ca 40 f3 3c 27 e7 c3 3d ce 5f 34 bd
       -0.047649432 0.02969398 0.09565573 -0.04403668
0000a0 9a 77 80 bb b6 63 88 3c b4 3c 96 3d 07 76 e6 3c
       -0.0039205076 0.016649108 0.07335797 0.028132452
0000b0 78 4b 43 bd 8a e4 26 3d 17 bf 9f bd cc 23 77 3c
       -0.047679394 0.040745296 -0.07800119 0.015084218
0000c0 f6 a7 52 3d a8 29 61 3d ef 62 33 3d ab dd e7 bc
       0.05142971 0.054971367 0.043795522 -0.028303942
0000d0 88 31 e1 37 e1 bb 19 3e 02 8f 0c 3d 4b 45 75 3d
       2.6845155e-05 0.15013076 0.03431607 0.059880536
0000e0 72 66 4d 3e 6c 47 5b bc 41 a8 74 bc b8 7d e5 bb
       0.20058611 -0.0133837275 -0.014932693 -0.0070035122
0000f0 22 bb 60 bc 24 07 7d 3d 24 7e 6e 3c a4 0e 85 bc
       -0.013716491 0.061774388 0.014556441 -0.016242333
000100 cc 2d 0e 3d ed dc 00 3e a5 1a 0c 3d cd 70 7d 3d
       0.034711644 0.12584276 0.034205098 0.061875153
000110 4e 4c cf 3c 6c 5a 97 3d 51 6d 3c bd da 37 f3 3d
       0.02530494 0.073902935 -0.04600269 0.11875887
000120 86 63 e3 ba 0b e0 ee 3d 79 eb bf 3c 0d f1 33 3e
       -0.0017348386 0.116638266 0.023427712 0.17572422
000130 86 73 65 bc f1 25 a2 bd d6 25 8f 3d c0 7c 3f bc
       -0.014004594 -0.07917393 0.069896385 -0.011687458
000140 c8 59 16 3e b2 2c 04 3d d3 f4 2b 3d b6 58 08 be
       0.14682686 0.032269187 0.04198153 -0.1331509
000150 86 f8 3b bd f0 4c 14 bd 4c 3a 3b 3d e5 e5 ec bd
       -0.045891307 -0.036206186 0.045709893 -0.115672864
000160 ac cd 4e 3c 09 91 b0 3c f2 31 3e 3b d1 62 54 bc
       0.012622278 0.021553533 0.002902147 -0.012963013
000170 a0 1c b0 bc d1 82 0c 3d 02 47 14 3d 95 d0 57 3e
       -0.021498024 0.034304444 0.03620053 0.21075661
000180 af ee cd bd b6 3e 27 3e a1 7b 56 3e 5a 02 0f 3e
       -0.10055291 0.16332516 0.20945598 0.13965741
